model/keypoint_classifier/keypoint_classifier.tflite (tflite, 7072 bytes, 6 tensors)

sequential/dense/BiasAdd/ReadVariableOp f4 [20]
0	0xbf86e319	-1.0538055
1	0xbf13c545	-0.57722884
2	0x3f9fb1eb	1.2476171
3	0xbf5d4194	-0.8642819
4	0xbe42b3ae	-0.19013855
5	0xbe3a9bdd	-0.1822352
6	0xbff3a954	-1.903605
7	0xbeeb5c6c	-0.4596895
8	0xbf37365b	-0.71567315
9	0xbe7a4f49	-0.24444307
10	0xbf9dca7d	-1.232742
11	0xbf95004b	-1.1640714
12	0xbf8e4e80	-1.1117706
13	0xbf61b01f	-0.88159364
14	0xbf5d008d	-0.86328965
15	0xbfa10011	-1.2578145
16	0xbf42e77a	-0.76134455
17	0xbfd53675	-1.6657244
18	0xbf8dd1ff	-1.1079711
19	0xbeecce24	-0.46251023

sequential/dense_2/BiasAdd/ReadVariableOp f4 [16]
0	0xbf02edee	-0.511443
1	0x3e7e3b50	0.24827313
2	0xbd57dedc	-0.05270277
3	0x3f43937f	0.76396936
4	0xbf5436ba	-0.82896006
5	0x3f738ca3	0.9513647
6	0xbe928304	-0.28615582
7	0x3d915793	0.070967816
8	0x3fe98559	1.824382
9	0x3de0496c	0.10951504
10	0xbf94fc1c	-1.1639438
11	0x3e9f905f	0.31164834
12	0xbf948c98	-1.1605406
13	0xbecf5c85	-0.40500274
14	0x3f9a94e6	1.207669
15	0x3d395862	0.045250304

sequential/dense_1/BiasAdd/ReadVariableOp f4 [10]
0	0x3ebce42a	0.36892825
1	0x3f822f2b	1.0170645
2	0x3fed89e5	1.8557707
3	0x3f10cb28	0.5655999
4	0x3f4fb985	0.81142455
5	0xbf03a60d	-0.5142525
6	0x3fb4bacf	1.411951
7	0xbcb82da6	-0.022482704
8	0x40046c00	2.0690918
9	0x3ec73b67	0.38912508

sequential/dense/MatMul f4 [20, 42]
0	0xbe5bae82	-0.21453288
1	0x3e33be24	0.17553002
2	0x3f8934dd	1.0719258
3	0xbfb2f00d	-1.3979508
4	0x3e5602ec	0.20899552
5	0xbf673bfa	-0.9032589
6	0x3c7770fb	0.01510262
7	0xbf0f0d47	-0.55879635
8	0x3d6a28e6	0.05716791
9	0xbea1863c	-0.31547725
10	0xbd6c0d1e	-0.057629697
11	0xbeb30091	-0.3496137
12	0xbd5dfe4c	-0.054197595
13	0xbe87df8b	-0.26537737
14	0x3e6e284a	0.23257557
15	0xbd792fad	-0.060836483
16	0x3ea8c4ce	0.3296265
17	0x3d2c1419	0.042011354
18	0xbe23f70e	-0.16012213
19	0xbe8d0c72	-0.27548558
20	0x3de9a724	0.11408833
21	0xbdbeb4fa	-0.09311862
22	0x3edceff8	0.43151832
23	0x3dc0e3c3	0.09418442
24	0x3ed02764	0.40655053
25	0x3d7c5966	0.061608694
26	0xbee171bc	-0.44032085
27	0xbe6e57cc	-0.2327568
28	0x3d7483a5	0.05969586
29	0x3d547c2f	0.051876243
30	0x3d70e2cc	0.05881004
31	0x3ea56176	0.3230092
32	0xbdd429ea	-0.10359557
33	0x3e82ce19	0.25547865
34	0xbf27531f	-0.6536121
35	0xbe25b258	-0.16181314
36	0xbd94a5e0	-0.07258201
37	0x3e593f8d	0.21215649
38	0xbe11ec38	-0.14250267
39	0x3f05fead	0.5234173
40	0xbe9a785f	-0.3016996
41	0x3f0e4b1b	0.5558335
42	0x3e96eb42	0.29476362
43	0x3e9dcd74	0.3082081
44	0xbae88b4b	-0.0017741708
45	0x3fdd4804	1.7287602
46	0x3e5f591e	0.2181134
47	0x3f3bc273	0.7334358
48	0xbdb9aeb5	-0.09066526
49	0x3f04c86d	0.51868325
50	0xbe850ef6	-0.25987977
51	0x3e9b5cf3	0.30344352
52	0xbcfbd2b7	-0.030740125
53	0x3ea145f6	0.31498688
54	0xbe18bd07	-0.14915858
55	0x3e9d0144	0.30665028
56	0xbed6cb1c	-0.41951835
57	0x3ed0f45a	0.40811425
58	0xbede90f2	-0.4346996
59	0x3ee64e62	0.44981676
60	0xbddf0e68	-0.1089142
61	0x3e1b3719	0.15157737
62	0xbdadcc4e	-0.08486234
63	0x3ca3d357	0.019998236
64	0xbf842162	-1.0322688
65	0xbdb79cee	-0.08965479
66	0xbfcd0c7c	-1.6019435
67	0xbdb9f5a7	-0.090800576
68	0xbd7181a1	-0.058961514
69	0xbca955a5	-0.020670721
70	0xbd24d683	-0.040243637
71	0xbe11f18f	-0.14252304
72	0xbf5cc833	-0.8624298
73	0xbde9876e	-0.11402784
74	0xbfbcb7b7	-1.4743565
75	0xbe3e0894	-0.1855796
76	0xbdcb284c	-0.099197954
77	0xbe89e13a	-0.26929647
78	0xbd5e1b8a	-0.054225482
79	0xbe9345ee	-0.2876429
80	0xbede0cea	-0.43369228
81	0xbefe831c	-0.49709404
82	0xbf6b8565	-0.9200042
83	0xbf16c42d	-0.5889309
84	0xbe90c9a8	-0.28278852
85	0x3e54bd3c	0.20775312
86	0xbf9de384	-1.2335057
87	0x3e0f8476	0.14015374
88	0xbf0959ad	-0.5365246
89	0x3edef141	0.43543437
90	0xbec0ff36	-0.3769471
91	0x3eca28d0	0.39484262
92	0xbea68671	-0.32524446
93	0x3e9d527f	0.30727002
94	0x3e90abca	0.28256065
95	0x3e319507	0.17342006
96	0xbe082f23	-0.13299231
97	0x3e547518	0.20747793
98	0xbe940383	-0.2890893
99	0x3e902682	0.2815438
100	0xbea2a5c0	-0.31767082
101	0x3e7b6646	0.24550733
102	0x3e125a69	0.14292301
103	0x3de5efdb	0.112273894
104	0x3e041a0a	0.12900558
105	0x3dc8f8b1	0.09813059
106	0x3d371477	0.04469725
107	0x3db3d589	0.08780963
108	0x3cdc22ee	0.026872125
109	0x3dd16fb0	0.10226381
110	0x3cdbc070	0.02682516
111	0x3d9204e5	0.0712984
112	0x3e187b91	0.14890887
113	0x3d4ab20d	0.04948621
114	0x3e0e1d61	0.13878395
115	0x3ddd4395	0.10803906
116	0x3d30f9d8	0.04320702
117	0x3d598519	0.053105447
118	0xbe609d89	-0.21935095
119	0x3d2afa36	0.041742526
120	0x3e006e01	0.12541963
121	0xbc499646	-0.012303894
122	0x3ea3ab39	0.3196657
123	0x3cbb162c	0.02283772
124	0x3eb64a36	0.35603493
125	0x3d9fe785	0.07807831
126	0xbe55a923	-0.20865302
127	0xbe5bbb98	-0.2145828
128	0xbf3dbdb0	-0.74117565
129	0xbdb46949	-0.08809144
130	0xbed5b947	-0.41742918
131	0x3d892cc3	0.06697991
132	0xbe9b98e5	-0.30390087
133	0x3d67339f	0.056445714
134	0xbe3559a4	-0.17709976
135	0xbda52b5d	-0.080649115
136	0xbec85ded	-0.3913416
137	0xbbc6486e	-0.0060511148
138	0xbe88934f	-0.26674888
139	0x3d42caf1	0.04755682
140	0xbdfee111	-0.12445272
141	0x3c8639af	0.016384928
142	0xbca2a7b2	-0.019855354
143	0x3d570216	0.052492224
144	0xbea50aa5	-0.32234684
145	0xbd3f09f5	-0.046640355
146	0xbdbdd20b	-0.09268578
147	0xbdad9dbd	-0.08477352
148	0x3e45091a	0.19241753
149	0xbea7e92c	-0.32795084
150	0x3e68f6e8	0.22750437
151	0xbfbf63d0	-1.4952335
152	0xbcdf9ce0	-0.027296484
153	0x3d05f8d0	0.03270799
154	0x3db8e02e	0.09027134
155	0xbddbd34b	-0.1073366
156	0x3ee4be82	0.44676596
157	0xbe1e8efa	-0.15484229
158	0x3ea78500	0.32718658
159	0xbec5e81b	-0.38653645
160	0x3ebe666f	0.37187526
161	0x3ded6c35	0.115929045
162	0x3edf60fe	0.43628687
163	0x3c5b0db2	0.013369964
164	0x3f519ad0	0.8187685
165	0xbe02f005	-0.12786873
166	0x3f6fa560	0.9361172
167	0xbe761e13	-0.2403491
168	0x3da83264	0.08212736
169	0x3e4ae39c	0.19813389
170	0xbeacf171	-0.33777955
171	0x405533e7	3.3312929
172	0xbd1305a5	-0.035894055
173	0x3f8be8c3	1.0930408
174	0xbcb8083c	-0.022464864
175	0xbeddc815	-0.43316713
176	0xbd02fc4c	-0.03197889
177	0xc000cf1d	-2.0126412
178	0x3f074579	0.5284038
179	0x3ec9cccc	0.3941406
180	0x3e9feb62	0.3123427
181	0x3e8d36f9	0.27581003
182	0x3e1120bd	0.14172645
183	0x3e87d1c7	0.26527235
184	0x3c73a141	0.014869989
185	0x3e615364	0.22004467
186	0x3f121bed	0.5707386
187	0x3e7e4d32	0.24834135
188	0x3e94d688	0.29069924
189	0x3e4143e4	0.18873554
190	0x3d876c9e	0.06612514
191	0x3e3bcc88	0.18339741
192	0x3d86ac58	0.06575841
193	0xbdd159ad	-0.102221824
194	0x3f0c147b	0.5471875
195	0x3e5bb1d9	0.21454562
196	0x3e5fea06	0.21866617
197	0x3e094d79	0.1340846
198	0x3cbb130e	0.022836234
199	0x3dc6f6c0	0.097150326
200	0x3dcef68e	0.1010562
201	0xbe9a656a	-0.30155498
202	0xbe04a15e	-0.12952182
203	0x3dd9e7fa	0.10639949
204	0xbd8e918e	-0.06961356
205	0x3da401c1	0.08008147
206	0xbd19f73c	-0.037589297
207	0x3e3b7969	0.18308033
208	0x3cae3e38	0.021269903
209	0x3e481175	0.1953791
210	0xbe837229	-0.25673035
211	0xbd8a7548	-0.06760651
212	0x3c723dfd	0.014785287
213	0x3e807e46	0.2509634
214	0xbb58c83b	-0.003307833
215	0x3e8d0112	0.2753988
216	0x3e701bac	0.23448056
217	0x3db45c78	0.088066995
218	0x3f6204dc	0.88288665
219	0xbb51fa1d	-0.0032039948
220	0xbe56f6e5	-0.2099262
221	0x3af40f64	0.001862031
222	0xbe7859b6	-0.24252972
223	0x3ca203f1	0.01977727
224	0xbe3ccba2	-0.18437055
225	0xbd950301	-0.072759636
226	0xbdc615d9	-0.09672136
227	0xbdfe0ebd	-0.12405155
228	0xbf25b708	-0.6473241
229	0xbc0dc7b0	-0.008653566
230	0xbf0daa37	-0.5533785
231	0xbcad6c76	-0.021169882
232	0xbf330352	-0.6992694
233	0xbdf95b6c	-0.121756405
234	0xbf321a14	-0.6957104
235	0xbdc6573a	-0.09684606
236	0xbfbd1e3c	-1.4774852
237	0xb8826216	-6.217153e-05
238	0xbfa62f80	-1.2983246
239	0xbb15a42e	-0.0022833454
240	0xbfe20cad	-1.7660118
241	0xbd897b67	-0.0671299
242	0xbf95da82	-1.1707308
243	0xbd8f52cf	-0.06998216
244	0xbf0bc6c4	-0.5460017
245	0x3cf79f8c	0.030227445
246	0xbeca7012	-0.39538628
247	0x3ce4f83e	0.027950402
248	0xbebb66c6	-0.36601847
249	0xbd1210de	-0.035660617
250	0x3de3e18b	0.11127003
251	0xbbcb2ee9	-0.0062006605
252	0x3e93b7f4	0.28851283
253	0xbe17c77f	-0.14822195
254	0x3f484eff	0.7824554
255	0xbf91198e	-1.1335924

sequential/dense_1/MatMul f4 [10, 20]
0	0x3e6a7dcf	0.22899555
1	0xbe9a2492	-0.30106026
2	0x3e82decd	0.25560609
3	0x3f8b72db	1.0894426
4	0x3f0990ea	0.53736746
5	0x3c2d8815	0.0105915265
6	0x3de889c0	0.11354399
7	0xbecc83e4	-0.39944375
8	0x3f72a2ee	0.9477986
9	0x3ef035c8	0.46916032
10	0x3feafe54	1.8358865
11	0x3f8e595c	1.112102
12	0x3f78bfe9	0.9716783
13	0x3e49f84a	0.19723621
14	0x4001db57	2.0290124
15	0x3fb98c0d	1.4495865
16	0x3fc7cb56	1.5608928
17	0x3c5dc09c	0.013534691
18	0x3fa6f3e2	1.3043177
19	0x3e98bc3b	0.29831108
20	0x3dde0df2	0.108425036
21	0x3f24b21a	0.6433426
22	0x3e316555	0.17323811
23	0x3f0280be	0.50977695
24	0xbe5db1ec	-0.21649903
25	0x3eb5f44e	0.35537952
26	0x3ea70b6a	0.32625896
27	0xbec2ee06	-0.38072222
28	0x3bf5e501	0.007504106
29	0xbe95bf1f	-0.29247376
30	0xbe868e89	-0.2628062
31	0x3f89bbb9	1.0760413
32	0x3f880feb	1.0629858
33	0x3fa5207b	1.2900537
34	0xbea7c121	-0.32764533
35	0x3dcbc82b	0.099502884
36	0x3f0dc0ed	0.55372506
37	0x3ebc98ee	0.36835426
38	0x3e60cb8e	0.2195265
39	0xc01bd92f	-2.4351308
40	0x3f9cf879	1.2263328
41	0xbeefce47	-0.46837065
42	0xbfdb4edf	-1.7133445
43	0x3dccdb4f	0.10002767
44	0x3d65c9b5	0.056100566
45	0x3c4aa969	0.012369492
46	0x3f73fcb5	0.95307475
47	0xbfcf176a	-1.617902
48	0x3f0cc9a6	0.5499519
49	0x3cf6f13d	0.030144328
50	0xbe11b465	-0.14228971
51	0xbef3ba23	-0.4760295
52	0xbcfc7397	-0.030816836
53	0x3e574674	0.2102297
54	0x3f9aceba	1.2094338
55	0x3f0bf428	0.5466943
56	0xbccd0881	-0.025028469
57	0x3ebf8a91	0.37410405
58	0xbcfe83cc	-0.031068705
59	0xbeeca02d	-0.46215954
60	0x3e1e8947	0.15482055
61	0x3f3188cc	0.6934936
62	0xbf1fa1cb	-0.6235625
63	0xbdca9322	-0.098913446
64	0xbf971a09	-1.180482
65	0x3f5dbca5	0.86615974
66	0x3ec65f25	0.38744465
67	0x3e3aad7e	0.18230245
68	0x3c9fb4dd	0.019495422
69	0xbf54427c	-0.8291395
70	0xbcbeaefe	-0.023276802
71	0x3df926b1	0.12165583
72	0xbda5dea0	-0.08099103
73	0x3d53a204	0.051668182
74	0x3f6f8089	0.93555504
75	0xbd30a96d	-0.043130327
76	0xbd0cf818	-0.03441629
77	0x3e897b0a	0.26851684
78	0xbf91d229	-1.1392261
79	0x3e84e59f	0.25956437
80	0x3f1fbd65	0.6239837
81	0x3e814054	0.2524439
82	0x3f1577b4	0.5838578
83	0x3f7d522e	0.9895352
84	0xbe0ad63d	-0.13558288
85	0x3ea68bf9	0.32528666
86	0x3ef2991c	0.47382438
87	0x3dff48e5	0.124650754
88	0xbc51fc8b	-0.012816559
89	0x3e4cf5d8	0.20015657
90	0x3e987f63	0.29784688
91	0xbf9384ef	-1.1524943
92	0x3ed64289	0.41847637
93	0x3e845658	0.25847125
94	0x3f0b0bc2	0.54314816
95	0x3c87db82	0.016584162
96	0x3e99d97c	0.3004874
97	0xbfa6cf2a	-1.3031971
98	0x3f86f2a9	1.0542804
99	0xbf9ef360	-1.2418022
100	0x3ebe856f	0.37211177
101	0x3e6809b6	0.22659954
102	0xbdef4885	-0.11683754
103	0x3e8aecf1	0.27133897
104	0x3fc400af	1.5312709
105	0x3dac246f	0.08405387
106	0x3fb33a60	1.400219
107	0xbe89b2f8	-0.26894355
108	0x3ae7d34c	0.0017686873
109	0x3cfac8a9	0.03061326
110	0xbc84db76	-0.016217928
111	0x3f0686f3	0.52549666
112	0x3f67298b	0.90297765
113	0xbc3ae1bf	-0.011406361
114	0x3df8255b	0.121165
115	0xbd0b840a	-0.03406147
116	0xbb95a250	-0.0045664683
117	0x3f9490b1	1.1606656
118	0x3c3e008c	0.01159681
119	0xbec25272	-0.37953526
120	0xbf0c816b	-0.54884976
121	0x3f23a182	0.63918316
122	0x3f7a2d2d	0.9772518
123	0x3f1c206b	0.60986966
124	0x3f10814b	0.56447285
125	0x3eceed24	0.404153
126	0x3e871a3a	0.26387197
127	0x3eca1fb3	0.3947731
128	0x3def7d28	0.116937935
129	0x3e70c082	0.23510936
130	0xbf890d49	-1.0707179
131	0x3f8b7a5d	1.0896717
132	0x3f40aa3e	0.7525977
133	0xbeb69baa	-0.35665637
134	0x3f96c6ea	1.1779454
135	0xbd74339e	-0.05961954
136	0x3f964e53	1.1742653
137	0x3cd88032	0.026428316
138	0x3f2d13db	0.6760842
139	0x3ef03c55	0.4692103
140	0x3f143ff5	0.5791009
141	0x3f5aca64	0.85465074
142	0x3f7be2de	0.98393047
143	0xbdaf0caf	-0.08547341
144	0x3db55dc0	0.08855772
145	0x3f36fb46	0.7147716
146	0x3e338ce7	0.17534219
147	0x3fb481e8	1.4102144
148	0xbe276a32	-0.16349104
149	0xbfe904ba	-1.8204567
150	0xbf8c024f	-1.0938205
151	0x3f13c554	0.57722974
152	0x3e72cb7a	0.23710433
153	0x3ee87ba0	0.45406818
154	0xbda89536	-0.08231585
155	0xbd92af98	-0.07162398
156	0x3cb12a45	0.021626601
157	0x3ed60ba8	0.41805768
158	0xbe8c1809	-0.27362087
159	0xbe6ebd4b	-0.23314397
160	0x3e6f1cba	0.23350802
161	0x3e63c88d	0.22244473
162	0x3f50d7c9	0.8157926
163	0xbdd97710	-0.106184125
164	0x3ebd0c74	0.36923563
165	0x3eac6059	0.33667257
166	0x3ebf363d	0.37346068
167	0x3f532805	0.8248294
168	0xbc6a41d0	-0.0142979175
169	0xbcb711db	-0.022347381
170	0xbe4999ef	-0.19687627
171	0xbf25f349	-0.6482435
172	0xbf60208c	-0.8754966
173	0x3dc95244	0.09830144
174	0x3f4bf233	0.7966644
175	0x3c5b36fb	0.013379808
176	0xbe411800	-0.18856812
177	0x3eb630fb	0.35584244
178	0xbce6e80f	-0.028186826
179	0xbfad16a4	-1.3522534
180	0x3f63390f	0.8875894
181	0x3f21115d	0.6291712
182	0x3f04cd1c	0.5187547
183	0xbe9e173f	-0.3087711
184	0x3f806e5e	1.0033681
185	0x3ea1b6ff	0.31584927
186	0x3f35b1f6	0.7097467
187	0x3f196d26	0.5993217
188	0x3f55ad8d	0.8346794
189	0x3e777dd6	0.24169096
190	0x3f5bec7f	0.8590774
191	0xbe8afa47	-0.2714407
192	0xbd8b3d09	-0.06798751
193	0x3ffbd980	1.9675751
194	0x3be04a8d	0.0068448246
195	0x3f994019	1.1972686
196	0xbeb35815	-0.3502814
197	0x3f21c61a	0.63192904
198	0x3d12717b	0.035752755
199	0x3f8a517b	1.0806116

sequential/dense_2/MatMul f4 [16, 10]
0	0xbea62faf	-0.32458255
1	0xbbccf524	-0.006254809
2	0x3f0ca4ae	0.5493878
3	0xbfd2953b	-1.6451792
4	0xbea93191	-0.3304563
5	0x3ea2c589	0.31791332
6	0xbf962f07	-1.1733102
7	0xbf714b6c	-0.9425571
8	0x3e7192b9	0.23591127
9	0x3edfcaa1	0.4370928
10	0xbb8ff61d	-0.0043933527
11	0x3f330300	0.6992645
12	0x3f2f7b05	0.6854709
13	0xbf435d86	-0.7631458
14	0xbf183d38	-0.5946841
15	0x3f308842	0.6895791
16	0x3eb9fae0	0.36324215
17	0xbfa959fd	-1.3230587
18	0xbeece031	-0.46264794
19	0xbfbad72f	-1.4596919
20	0x3f3e95a1	0.74447066
21	0xbcd26d23	-0.025686806
22	0xbcb1d70f	-0.021708993
23	0x3f38650d	0.7202919
24	0x3e885636	0.26628274
25	0xbf6265a3	-0.88436335
26	0xbed35178	-0.41273093
27	0xbee1b1e0	-0.4408102
28	0xc013093f	-2.2974393
29	0xbf01b376	-0.5066446
30	0xbf2f1beb	-0.68401974
31	0xbe501587	-0.20320712
32	0xbe2a4609	-0.16628279
33	0xbf045beb	-0.51702756
34	0x3f10fc51	0.56635004
35	0xc03a4991	-2.9107401
36	0x3f858592	1.0431387
37	0xbf5b4b5b	-0.8566186
38	0x3f4d64d0	0.8023195
39	0xc062fd39	-3.5467055
40	0x3ebb8a41	0.36628917
41	0xbf27def3	-0.6557457
42	0x3f4ae763	0.7925932
43	0xbef49d9b	-0.47776493
44	0x3f7b7ce7	0.9823746
45	0xbfa660d0	-1.2998295
46	0xbf8aafdc	-1.0834918
47	0xbf7d475e	-0.9893702
48	0xbecb6957	-0.39728805
49	0xbf075322	-0.52861226
50	0xbe13dda5	-0.1444002
51	0x3f7e199b	0.9925782
52	0xbf8f2a7c	-1.118484
53	0xbf563988	-0.83681536
54	0x3dc2303f	0.094818585
55	0x3e08510e	0.1331217
56	0x3f071895	0.52771884
57	0xbf89f44a	-1.0777676
58	0xbf186b0a	-0.5953833
59	0xbf0973ca	-0.53692305
60	0xbf4dd6ba	-0.8040577
61	0xbe93fd32	-0.2890411
62	0xbf6a563c	-0.91537833
63	0x3e50014f	0.20312999
64	0xbe39d4fe	-0.18147656
65	0x3d3671a9	0.04454199
66	0x3e9a84e2	0.30179507
67	0xbe554e99	-0.20830764
68	0x3f77d4e7	0.9680924
69	0xbbffc82f	-0.007805846
70	0xbf43fb33	-0.76555175
71	0x3e4d7db0	0.20067477
72	0xbf3b47a7	-0.7315621
73	0xbcb6e9fd	-0.022328371
74	0xbf483f54	-0.7822163
75	0xbf0ed05d	-0.5578669
76	0x3f063f14	0.5244
77	0x3f21dade	0.6322459
78	0x3ec70ef3	0.38878593
79	0xbf428efb	-0.7599942
80	0xbeb774ff	-0.35831448
81	0x3ea07ffa	0.31347638
82	0x3efc1e74	0.49241984
83	0xbff16821	-1.8859903
84	0xbffe8286	-1.9883583
85	0xbf95f041	-1.1713945
86	0xbf5f462a	-0.87216437
87	0xbf88ca5a	-1.0686753
88	0x3f837472	1.0269911
89	0x3ea989d9	0.33112982
90	0xc02b17c3	-2.6733253
91	0x3ea3137c	0.31850803
92	0xbdb096c4	-0.08622506
93	0x3e2ed003	0.17071538
94	0x3ef444e5	0.47708812
95	0x3e0e3b6a	0.13889852
96	0xbfab5d6b	-1.3387884
97	0x3e6a91c0	0.22907162
98	0x3f5646a3	0.83701533
99	0x3cab6104	0.020920284
100	0xbe3ab1cd	-0.18231888
101	0xbf78efa2	-0.9724065
102	0xbf035549	-0.5130201
103	0x3e8031cd	0.25037995
104	0x3ebcb6d5	0.3685824
105	0x3e94b27b	0.2904242
106	0xbf258c9c	-0.6466768
107	0x3e9ccbc9	0.30624226
108	0x3e3b7147	0.1830493
109	0x3f62e74f	0.886342
110	0x3e1a1aa0	0.15049219
111	0xbe53b221	-0.2067342
112	0xbf2f377f	-0.68444055
113	0x3ec0b387	0.37636968
114	0x3d58236c	0.052768156
115	0x3f4bba79	0.7958141
116	0x3f0c82a0	0.5488682
117	0x3e28dbb9	0.16490068
118	0xbf427623	-0.7596151
119	0xbea77ca4	-0.3271228
120	0x3ec4751f	0.38370606
121	0x3e933de9	0.2875817
122	0xbee244cf	-0.44193122
123	0xbded306f	-0.115815036
124	0x3ddda891	0.10823167
125	0x3eaca17f	0.33716962
126	0x3e3bee30	0.1835258
127	0x3f0e5acf	0.5560731
128	0xbf093141	-0.5359078
129	0xbdfb9bca	-0.12285574
130	0x3ed01bef	0.40646312
131	0x3eebc1ec	0.46046388
132	0xbf2dc0bf	-0.6787223
133	0x3e9f0b58	0.31063342
134	0x3d2cbd73	0.04217286
135	0x3ecc70f1	0.39929917
136	0x3dca60b5	0.09881727
137	0xbda311cf	-0.07962381
138	0xbeefa519	-0.46805647
139	0xbbe6a4a3	-0.007038669
140	0xbf3df821	-0.7420674
141	0xbf636948	-0.8883252
142	0x3f369b45	0.7133067
143	0x3f0f24f2	0.5591575
144	0xbf13eeb2	-0.57786095
145	0xbe75ac6d	-0.23991556
146	0x3e3df1fd	0.18549342
147	0xbdeff893	-0.11717334
148	0x3c472df9	0.012156957
149	0x3d14d7d7	0.036338653
150	0xbd3efeed	-0.046629835
151	0x3f2636b5	0.64927226
152	0xbfb2283e	-1.3918531
153	0xbef84991	-0.48493627
154	0x3ec1a6ca	0.37822562
155	0x3cdd02c5	0.02697886
156	0x3ef03d4b	0.46921763
157	0x3f165c39	0.5873447
158	0xbf2230a3	-0.63355464
159	0xbf6771ff	-0.9040832
