model/point_history_classifier/point_history_classifier.tflite (tflite, 6432 bytes, 6 tensors)

sequential/dense/BiasAdd/ReadVariableOp f4 [24]
000000 68 10 1a be 1d 6f c1 bd 86 44 96 bd 81 1a dd bd
       -0.15045321 -0.09445021 -0.073372886 -0.10796071
000010 91 e4 0e be 03 a9 22 bd 8e bd 09 be c3 96 bd bd
       -0.13954379 -0.039711963 -0.13451216 -0.09257271
000020 ed 9b e8 bd 6f eb 38 be 65 d9 76 bd 13 07 2f bd
       -0.113578655 -0.18058561 -0.060265917 -0.042731356
000030 94 2b 13 bd 87 f9 2c bd ad d9 84 bd 6d da 03 be
       -0.03593023 -0.042230155 -0.06486831 -0.12876292
000040 19 97 aa bd 14 c9 1e be 0a 73 dd bd 60 40 12 be
       -0.08329601 -0.15506393 -0.108129576 -0.1428237
000050 b8 9d 6a bd 5c 27 ac bd 44 d2 02 bd f8 4c 36 bd
       -0.05727932 -0.08405945 -0.031938806 -0.044506997

sequential/dense_2/BiasAdd/ReadVariableOp f4 [4]
000000 99 5c af 3e c2 d4 a1 3e 8b 2b 0b 3f d5 d9 74 bf
       0.34250334 0.31607634 0.54363316 -0.95644885

sequential/dense_1/BiasAdd/ReadVariableOp f4 [10]
000000 08 bf 10 3d c2 ae 40 3f e1 2a bc 3d 61 9d 4c 3f
       0.03533843 0.7526666 0.09187866 0.7992764
000010 b5 20 48 3f 92 c8 b9 3d b9 06 8b 3e f3 69 15 3f
       0.78174907 0.09071459 0.27153566 0.5836479
000020 c3 a5 50 bb 0e b5 5a 3e
       -0.0031837083 0.2135813

sequential/dense/MatMul f4 [24, 32]
000000 62 cb 98 3e a0 ed a3 3e 86 33 8a 3f 90 2f 05 3f
       0.2984267 0.3201723 1.0796974 0.520257
000010 bf 29 ad 3f 91 1a 3b 3f 9c 1c ae 3e d4 29 e8 3e
       1.3528365 0.7308741 0.34006202 0.45344412
000020 8b 73 e2 3e e3 7e c4 3d cb bf d7 3e ac 8a 12 3e
       0.44228777 0.09594514 0.42138514 0.14310712
000030 d1 93 8c 3e 87 8c dc 3d d1 9c 79 3e 04 35 53 3e
       0.27456525 0.10768991 0.24376227 0.20625693
000040 a3 69 a0 3e 1e 9f 23 3e f4 4d a0 3e c4 21 fe 3d
       0.31330594 0.15978667 0.31309474 0.12408784
000050 9c 24 9b 3e 9f 0f 5e 3d ed c4 56 3e a1 3a cf bc
       0.30301368 0.054214116 0.20973559 -0.025296511
000060 09 82 8f 3e 5d 4b 49 be 51 86 d1 3e fe f9 de be
       0.28028896 -0.19657655 0.40922788 -0.43550104
000070 1a f7 08 3f e0 87 63 bf 93 9a 35 3f e6 df cf bf
       0.5350205 -0.88879204 0.70938987 -1.6240203
000080 08 32 80 bd 44 88 a5 bd a4 a1 db be a2 89 5b 3f
       -0.06259543 -0.08082631 -0.4289676 0.85756886
000090 99 04 9f be 47 ec 83 3f 41 1c b1 be 79 f1 13 3f
       -0.31058195 1.0306481 -0.3459187 0.57790333
0000a0 2d 08 a7 3d b9 e3 8b 3e c2 ab 5b be 0c 38 83 3e
       0.08155856 0.27322176 -0.21452239 0.25628698
0000b0 6f f3 d7 be a9 6a da 3d 35 46 19 be e1 3b 0a 3e
       -0.42177913 0.10664875 -0.14968188 0.13499404
0000c0 05 fd 9a be 8b 15 c3 3d 53 f7 60 be 87 53 57 3d
       -0.30271164 0.09525593 -0.21969347 0.052569892
0000d0 a3 e0 cd bd 07 9e 3e 3e 40 d5 91 3e 26 c4 32 3e
       -0.10052612 0.1861497 0.2848301 0.17457637
0000e0 d7 b7 da 3e 60 46 8d 3e c3 0e 49 3f 06 a8 7b 3e
       0.42718384 0.27592754 0.7853815 0.24575815
0000f0 90 04 91 3f 14 d3 b9 3e 0a 0a ca 3f b9 29 08 3f
       1.1329517 0.36293852 1.5784314 0.53188664
000100 5e bd 8a 3e 72 58 59 be d5 6f 67 bf f7 59 67 3e
       0.270976 -0.21225145 -0.9040502 0.22592913
000110 df 15 b4 be e2 c8 b6 3e c1 0f 62 be 0c 3a bb 3d
       -0.35172936 0.35700136 -0.22076322 0.09141931
000120 e4 2d 9a be 15 81 97 3e 4e de 58 be 8f d2 ea 3e
       -0.30113137 0.2959067 -0.21178553 0.45863768
000130 46 99 0f bf 2c 01 76 be e8 a7 3f bf 8c 7f 3b 3e
       -0.5609325 -0.24023885 -0.7486558 0.18310374
000140 d1 a8 e5 be 5c 85 10 be 23 f3 7f bf 66 62 05 bf
       -0.4485536 -0.14113373 -0.9998037 -0.5210327
000150 c3 41 02 bf 05 7c d0 be 93 65 3f bf 43 5b 2b bf
       -0.50881594 -0.4071962 -0.74764365 -0.6693613
000160 6d 22 35 bf dc d6 80 bf 41 df 04 bf b6 3c 8b bf
       -0.70755655 -1.006557 -0.5190316 -1.0877903
000170 75 a5 43 bf 57 56 9a bf e6 33 4a bf ad 4e b7 bf
       -0.7642434 -1.2057599 -0.7898544 -1.4320885
000180 74 a3 8f 3d 18 d2 9c be e7 7a 9d bf 20 6c 92 3f
       0.07013598 -0.3062904 -1.2303132 1.1439247
000190 d7 61 aa bf 8c 89 8b 3f a7 f6 61 bf 50 97 84 3f
       -1.3311108 1.0901351 -0.88266987 1.0358677
0001a0 9b 7b 1a bf 8e 13 4a 3f 5c 9a 1a 3e 46 38 2d 3f
       -0.60344857 0.7893609 0.15097946 0.6766399
0001b0 e5 f3 10 3f 7e fe fe 3e 23 44 29 3f 71 21 1d 3e
       0.56622154 0.49803537 0.66119593 0.15344788
0001c0 f9 87 74 3f ea 8a a5 3c 45 14 38 3f 1c 25 23 be
       0.9551998 0.020207841 0.7190593 -0.15932125
0001d0 1f 19 44 3f c4 35 c3 be 28 9d 13 3f 28 8c b6 be
       0.7660083 -0.38126957 0.57661676 -0.35653806
0001e0 a0 fe ae 3e 2d e5 a8 be b5 b2 91 bd 4b f5 b8 be
       0.34178638 -0.32987347 -0.07114164 -0.36124644
0001f0 f9 72 4c be 38 c9 c4 3c 74 96 6e be 21 91 cd 3e
       -0.19965734 0.02402173 -0.23299581 0.40149787
000200 16 7e 6c be f2 b4 7b be 81 0c f2 bf ef ca 51 bf
       -0.23094973 -0.24580744 -1.8910066 -0.8195028
000210 50 74 cf bf 04 32 17 bf 1f 4d da bf 25 27 ef be
       -1.6207371 -0.5906069 -1.7054785 -0.46709552
000220 2f 0e 91 bf 31 84 28 3e ac 04 82 bf 49 19 5e 3c
       -1.1332453 0.16456677 -1.0157676 0.013555833
000230 21 85 66 bf ad 26 df 3e 31 9c 83 be b2 0c b9 3e
       -0.9004689 0.43584195 -0.25705102 0.36142498
000240 b4 18 67 3e ee f6 03 3f 1f 37 82 3e 70 eb db 3e
       0.22568017 0.5154866 0.2543268 0.42953062
000250 8c 0a 07 3f a1 e0 9a 3e f3 88 3f 3e db 3b 5d 3e
       0.5275047 0.30249503 0.18704586 0.21604864
000260 d6 88 dd 3e 50 fa 8c 3e 8d ca 18 3f ea 44 ab 3e
       0.4326846 0.27534723 0.5968407 0.33451015
000270 91 b7 b1 3e 26 e8 a6 3d 45 e5 62 be 0c f5 3c 3d
       0.34710363 0.081497476 -0.22157772 0.046132132
000280 b8 83 18 3d ec e0 4c 3e 73 d1 bd bf 08 ae 85 3f
       0.03723499 0.20007676 -1.4829544 1.0443735
000290 1a 7e db bf 06 63 5c 3f ea 4b 5c bf 78 41 92 3f
       -1.7147858 0.860886 -0.86053336 1.142623
0002a0 16 6a 56 bf 11 52 46 3f 47 d3 96 be dc 83 68 3f
       -0.83755624 0.77468973 -0.29458067 0.908262
0002b0 4e 30 e7 3d cf b8 e0 3e 3f 9c c9 3b 4f cd b0 3e
       0.1128851 0.43890998 0.006152659 0.34531638
0002c0 86 c0 1f 3f a3 62 c5 3d a7 4e 4a 3f 20 fe 62 3e
       0.6240314 0.09637954 0.79026264 0.22167253
0002d0 ff 47 40 3f c7 bf a9 3d 9e f0 5b 3f a8 5c 09 3e
       0.7510986 0.08288532 0.8591403 0.13414252
0002e0 a1 4b 3a 3f b8 5f 42 be 8f 81 e9 3e 61 2d 34 be
       0.7277165 -0.18981826 0.45606658 -0.17595436
0002f0 d9 de e6 3e 80 11 b4 3e 84 e4 2e 3f e4 4d 62 3e
       0.45091894 0.351696 0.6831744 0.22100025
000300 c2 99 88 3e 78 b7 a0 3e b4 59 95 bf 5f f3 95 bf
       0.26679808 0.31389976 -1.1668 -1.1714896
000310 f8 dd 55 bf a9 8b 5a bf fd fd de bd 8e 69 97 be
       -0.8354182 -0.85369354 -0.10888288 -0.2957272
000320 1b fa 81 be c3 46 b7 be 57 0a 84 be bd 66 0a bf
       -0.25386128 -0.35796174 -0.2578914 -0.54063016
000330 21 cd 22 be b6 cd 93 be d9 4e 7d bd a3 64 cf be
       -0.15898563 -0.28867882 -0.061842773 -0.40506467
000340 e5 ab 15 3f 2b c6 59 be f5 bd 4d 3f 03 ea b7 be
       0.58465415 -0.21267001 0.80367976 -0.35920724
000350 44 c0 44 3f 77 e1 58 be 34 3c 5f 3f 07 b7 9b be
       0.76855874 -0.21179758 0.8720124 -0.30413076
000360 22 58 4c 3f e8 c7 9c 3d 83 7a 24 3f 01 cf c1 3e
       0.7982198 0.076553166 0.6424944 0.37853244
000370 f4 64 f6 3e 3c 13 19 3f db 7a 30 3e 50 ec 30 3f
       0.48123896 0.59794974 0.17234366 0.69110584
000380 18 51 56 3e 7b 89 9f be cb 00 86 bf c7 74 02 bf
       0.20929372 -0.31159577 -1.0468992 -0.5095944
000390 eb 30 69 bf 9b 93 8f be 0e eb 69 bf a6 10 7d be
       -0.9109027 -0.28042302 -0.9137429 -0.24713382
0003a0 b8 1e 87 bf c9 cc 83 be e8 08 69 bf 95 39 04 be
       -1.055625 -0.25742176 -0.91029215 -0.12912591
0003b0 cd 01 16 bf 8e b5 9c be 5a 85 04 bf d8 45 db bc
       -0.585965 -0.30607265 -0.5176598 -0.026766703
0003c0 ee b2 03 bf 90 95 0c be 13 a7 ba be 08 f4 a6 3d
       -0.514449 -0.13728929 -0.36455593 0.08152014
0003d0 99 56 22 bd 1c 00 9c 3d 42 a3 04 be f9 fd 52 3d
       -0.039633367 0.07617208 -0.12952903 0.05151174
0003e0 81 4a c7 be 94 d1 ce 3e 8f 23 10 bf df 1d 46 3f
       -0.3892403 0.4039427 -0.5630426 0.7738933
0003f0 98 97 a9 be 30 bd 72 3f cd d2 b2 be a3 38 b8 3f
       -0.3312347 0.9481993 -0.34926453 1.4392284

sequential/dense_1/MatMul f4 [10, 24]
000000 41 0c 8c 3f 7f 36 82 3f ae 23 83 3f 7f 83 0f 3f
       1.094124 1.0172881 1.0245264 0.5606002
000010 f0 6b 26 3f b2 66 38 3f ff 14 73 3f 05 13 79 3f
       0.6500845 0.720317 0.9495391 0.97294647
000020 a2 a5 99 3f d7 15 6e 3f 7a 27 73 3f 81 94 90 3f
       1.2003672 0.93002075 0.9498211 1.129532
000030 7a 7c 8e 3f 3a 67 13 3f 8a c9 dc 3f e6 b6 a4 3f
       1.1131737 0.57579386 1.7249005 1.2868316
000040 30 79 a9 3f cb 5d ab 3f 44 21 fe 3e d5 1d 8f 3f
       1.3240108 1.3387998 0.49634755 1.1180979
000050 8b be 9b 3f 8a ba cc 3f dd 09 6e 3f b8 20 bb 3f
       1.2167524 1.5994427 0.929838 1.461936
000060 50 b2 13 bf fd c1 b9 bf 6d 58 20 be 44 82 e2 bf
       -0.5769396 -1.4512326 -0.15658732 -1.7696004
000070 90 d6 e5 bf 5c 0e 12 c0 7d d1 9a bf 24 91 fe bf
       -1.7956104 -2.2821264 -1.2095181 -1.9888043
000080 df 9a c3 be 42 7c 25 bf bb 93 19 3e 1c dd b2 bd
       -0.38204095 -0.6464273 0.14997761 -0.087335795
000090 29 35 0e c0 b9 dd 2c c0 6a e9 12 c0 10 ea dd be
       -2.2219946 -2.7010329 -2.2954965 -0.43342638
0000a0 37 b4 66 bf 8b 3a c9 bf e1 2d 81 bf 4d fe 54 bf
       -0.90118736 -1.5720991 -1.0092126 -0.8320053
0000b0 81 d8 ea 3d 50 1c f8 bf c1 11 7c bf ba 6e ce 3d
       0.11467076 -1.938364 -0.9846459 0.10079713
0000c0 0d 4d 63 3f b8 a5 9a 3f 6d 16 45 bf 95 96 87 3f
       0.88789445 1.2081823 -0.76987344 1.0592829
0000d0 cd 9d af 3f e3 bc 40 3f ad 3f cd 3e 9d d0 85 3f
       1.3720032 0.7528822 0.40087643 1.0454289
0000e0 b5 54 e1 bd fe 3a 35 3f e1 19 77 bf b5 67 ae bf
       -0.11002485 0.7079314 -0.96523863 -1.3625399
0000f0 8f 57 80 3e a7 61 ff 3e 08 5e 9f 3e 36 cb 94 bf
       0.25066802 0.4987919 0.31126428 -1.1624515
000100 81 bc 55 3e e1 e5 0f 3f a0 28 e3 bd a4 c8 c7 3b
       0.2087269 0.5621014 -0.11091733 0.0060969163
000110 96 81 da be 86 7f a2 3e f4 8c dc 3e df 83 e9 be
       -0.4267699 0.31737918 0.4307629 -0.45608422
000120 af 90 fb 3e 86 9f 82 3e 2d 21 90 be ca 7c 9f 3f
       0.49133822 0.25512332 -0.2815031 1.2459958
000130 37 0f fc bd 4d 6f 7f bf 6b a1 e2 be 36 40 b7 be
       -0.123075895 -0.99779207 -0.44263777 -0.35791177
000140 98 8b 16 bf af 6d 18 3f f9 38 1e be 63 b4 01 bf
       -0.58806753 0.59542364 -0.15451421 -0.50665873
000150 1c 40 3a be a3 1a 70 be a9 d8 85 be 58 50 76 3f
       -0.18188518 -0.23447661 -0.2614186 0.96216345
000160 82 a1 eb be f2 d5 3b 3f c6 bf 93 be 6b d7 0f bf
       -0.46021658 0.7337333 -0.2885725 -0.56188077
000170 47 76 bb be 75 b2 09 bf 24 47 1a bf ae ee ea be
       -0.36613676 -0.5378793 -0.602648 -0.45885223
000180 e5 cf 99 be 3f 23 0c be 45 2b 0e 3f 15 21 05 bf
       -0.30041423 -0.1368532 0.55534774 -0.52003604
000190 d7 29 53 bf 4a d0 ac be f4 bd 9f 3f f2 4c 71 3c
       -0.8248572 -0.33752662 1.2479844 0.014727818
0001a0 8a 3c 56 3f f3 d3 5d bf 94 70 26 bf 7a c3 9a be
       0.83686125 -0.86651534 -0.6501553 -0.30227262
0001b0 b4 3b 81 3f 0c 6b 9a be 72 42 98 3f ce 1b 21 bf
       1.0096345 -0.30159795 1.1895278 -0.6293305
0001c0 29 bb 5b 3f 5f 0e 9b bf c3 f1 96 3e 9f 15 56 3f
       0.8583246 -1.2113761 0.29481325 0.8362674
0001d0 d7 a7 c3 3e 48 a6 72 3f 55 07 ad be 0f bd 40 3f
       0.3821399 0.94784975 -0.33794656 0.7528848
0001e0 85 a4 68 3f 03 87 39 3f b4 90 ca 3e b4 58 68 3f
       0.90876037 0.72471637 0.39563525 0.9076035
0001f0 fe 1e d8 3f 16 3b 93 3f d0 5e 7c 3e 33 98 a2 3f
       1.6884458 1.1502407 0.24645543 1.2702698
000200 e5 fd 1f 3d 2a f7 6a 3f 0c 20 68 3f 8e 09 8f 3f
       0.039060492 0.9178339 0.906739 1.1174791
000210 4b cc cd 3e 56 b6 97 3f 1b c6 3d 3e 13 1d c8 3f
       0.40194926 1.185252 0.18532602 1.5633873
000220 10 e8 e1 3e 3b 86 bd 3f 50 50 48 be 40 71 d8 3e
       0.44122362 1.4806589 -0.19561887 0.42273903
000230 7b 95 0e 3e 90 cb d4 bd 85 19 b8 3f d3 7a 78 3e
       0.1392421 -0.10390389 1.4382788 0.24265604
000240 02 00 a2 3e b8 23 1f 3e 99 29 01 3f cd a0 2b 3f
       0.3164063 0.1554097 0.504541 0.6704224
000250 3c 1a 86 3f 33 f1 86 3f 60 e6 ec 3e 67 65 72 3f
       1.0476756 1.0542358 0.46269512 0.9468598
000260 56 3f 60 3f 7e c7 40 3f 38 87 d2 3e ee 6d 4d 3f
       0.8759664 0.753044 0.4111879 0.80245864
000270 98 14 66 3f cb 88 1f 3f ba b1 f7 3d 12 18 56 3f
       0.89875174 0.62318105 0.120944455 0.8363048
000280 18 87 da 3e de d3 38 3f 78 1b cb 3f b0 0e e0 3e
       0.42681193 0.72198284 1.5867758 0.43761206
000290 2d 8e 6d 3f ed 9f 41 3e 33 cf 86 3f 51 aa ed 3e
       0.9279507 0.18908663 1.0531982 0.46419004
0002a0 6f 82 a8 bf 7e cf b1 bf 32 98 e1 bf 67 66 ed bf
       -1.3164805 -1.3891447 -1.7624571 -1.8546876
0002b0 e2 bc b7 bf f6 d9 a4 bf 9d 17 e7 bf 10 af 24 c0
       -1.4354517 -1.2879016 -1.8054081 -2.573185
0002c0 bf 74 16 c0 62 ea e2 bf ce f7 fd bf 77 56 e9 bf
       -2.3508756 -1.7727778 -1.9841249 -1.8229512
0002d0 ec c2 20 c0 94 21 4f c0 68 2c 09 c0 7e 8a 21 c0
       -2.511897 -3.2364244 -2.1433353 -2.524078
0002e0 fd 7a 06 c0 cf f5 f0 bf e5 d9 48 c0 fe a9 0f c0
       -2.1012566 -1.8825015 -3.1382992 -2.2447505
0002f0 f5 75 45 c0 5f 7a ce bf e2 4b 5c c0 e9 69 3a c0
       -3.0853245 -1.6131095 -3.4421315 -2.9127142
000300 de be d3 3f 43 3a 50 3f bc 6e 27 3f 48 eb 1b bc
       1.6542623 0.813389 0.6540334 -0.009516545
000310 0c 82 41 3f c3 72 f1 3e 8f 5f 5f be 86 fc 18 3f
       0.7558906 0.4715787 -0.21813796 0.5976032
000320 70 b0 13 3f 72 b6 dc 3f 0b 63 8b 3f c9 38 17 3f
       0.576911 1.7243178 1.08896 0.5907102
000330 28 72 ff bd ed 8d 93 be 80 b6 65 be 78 84 93 3f
       -0.124729455 -0.28819218 -0.224329 1.1524801
000340 ae 7d 8a 3e 08 f0 57 3f 39 2e 26 bf 21 5a 3c 3d
       0.2704901 0.84350634 -0.6491428 0.04598439
000350 05 53 1c 3e b2 b0 25 be 47 64 29 3f d9 7c a8 3e
       0.15266044 -0.16180685 0.66168636 0.3290775
000360 7b 17 9f 3e b1 a1 9b 3e 2a 4d 32 bf 12 50 b0 bc
       0.31072602 0.30396798 -0.69648993 -0.021522556
000370 d0 3c 4f be 9a a7 a8 bd e9 82 89 3f 75 04 be 3e
       -0.20238042 -0.082350925 1.0743076 0.37112775
000380 2f c5 71 3f d4 3b 62 be bf c3 6c 3e 77 2d 3a be
       0.94441503 -0.22093135 0.23121546 -0.18181406
000390 19 80 36 3f 14 8b 85 3e 05 3c 70 3f 43 55 77 be
       0.7128921 0.2608267 0.9384158 -0.24153619
0003a0 35 6f 40 3f b3 4c 98 be 71 2e 01 bf 15 ef 9b 3f
       0.7516969 -0.29746017 -0.5046149 1.2182337
0003b0 b0 c4 33 3f f0 60 2a 3f 50 ce 23 be 83 16 8b 3e
       0.70221996 0.66554165 -0.1599667 0.27165613

sequential/dense_2/MatMul f4 [4, 10]
000000 11 56 99 c0 18 48 19 40 c0 05 1a c0 6b cb 99 3f
       -4.791756 2.3950253 -2.406601 1.2015203
000010 91 9a 3c bf 5d 95 44 c0 85 2d 47 c0 d3 67 2b 40
       -0.7367335 -3.0716164 -3.1121533 2.678212
000020 34 d0 84 c0 41 0b e7 bf b3 cc 49 3f 7b 8e df bf
       -4.1504154 -1.805031 0.7882797 -1.7465357
000030 77 69 09 c0 65 1f 02 c0 19 58 dd 3f 8a 21 e6 bd
       -2.147062 -2.0331662 1.729251 -0.11236866
000040 35 17 c7 3e 7e e4 c3 bf ca d0 2c bf c5 86 81 3f
       0.38884893 -1.5304105 -0.67506087 1.0119253
000050 3c dd 2e 3f 45 92 00 c0 65 11 2f 3f c5 31 37 3f
       0.68306327 -2.0089276 0.68385917 0.7156032
000060 2d 48 b3 bf 9e 51 5c 3f 40 d7 66 3f 73 29 fa bf
       -1.4006401 0.8606204 0.90172195 -1.9543899
000070 39 a0 ce 3e 04 00 46 bf fa 94 72 3f 77 4e 76 be
       0.40356615 -0.77343774 0.9475857 -0.2405337
000080 2f b2 67 3f 56 b0 dd be fc f1 27 3e 3f c6 26 3f
       0.9050626 -0.43298596 0.16400903 0.6514625
000090 52 0e 3d 3e fe 73 79 bf a5 8b 81 3f e7 66 77 3f
       0.18462494 -0.97442615 1.0120741 0.9664139
